…
I1221 07:01:51.346882  2005 net.cpp:50] Initializing net from parameters: 
name: "VPGNet-noVP"
state {
  phase: TRAIN
}
layer {
  name: "data"
  type: "DriveData"
  top: "data"
  top: "label"
  top: "type"
  include {
    phase: TRAIN
  }
  transform_param {
    mean_file: "./driving_mean_train.binaryproto"
  }
  data_param {
    source: "./LMDB_train"
    batch_size: 24
    backend: LMDB
  }
  drive_data_param {
    shrink_prob_factor: 1
    unrecognize_factor: 0
    crop_num: 1
    random_crop_ratio: 1
    resize: 1
    scale: 1
    catalog_resolution: 4
    reco_min: 4
    train_min: 4
  }
}
layer {
  name: "slice-label"
  type: "Slice"
  bottom: "label"
  top: "pixel-label"
  top: "bb-label"
  top: "size-label"
  top: "norm-label"
  slice_param {
    slice_dim: 1
    slice_point: 1
    slice_point: 5
    slice_point: 7
  }
}
layer {
  name: "pixel-block"
  type: "Concat"
  bottom: "pixel-label"
  bottom: "pixel-label"
  bottom: "pixel-label"
  bottom: "pixel-label"
  top: "pixel-block"
  concat_param {
    concat_dim: 1
  }
}
layer {
  name: "size-block"
  type: "Concat"
  bottom: "size-label"
  bottom: "size-label"
  top: "size-block"
  concat_param {
    concat_dim: 1
  }
}
layer {
  name: "norm-block"
  type: "Concat"
  bottom: "norm-label"
  bottom: "norm-label"
  bottom: "norm-label"
  bottom: "norm-label"
  top: "norm-block"
  concat_param {
    concat_dim: 1
  }
}
layer {
  name: "bb-label-size-normalization"
  type: "Eltwise"
  bottom: "bb-label"
  bottom: "size-block"
  top: "bb-label-sn"
  eltwise_param {
    operation: PROD
  }
}
layer {
  name: "bb-label-num-pixel-normalization"
  type: "Eltwise"
  bottom: "bb-label-sn"
  bottom: "norm-block"
  top: "bb-label-sn-nn"
  eltwise_param {
    operation: PROD
  }
}
layer {
  name: "L0"
  type: "Convolution"
  bottom: "data"
  top: "L0"
  param {
    lr_mult: 1
    decay_mult: 1
  }
  param {
    lr_mult: 2
    decay_mult: 0
  }
  convolution_param {
    num_output: 96
    kernel_size: 11
    stride: 4
    weight_filler {
      type: "gaussian"
      std: 0.01
    }
    bias_filler {
      type: "constant"
      value: 1
    }
  }
}
layer {
  name: "relu1"
  type: "ReLU"
  bottom: "L0"
  top: "L0"
}
layer {
  name: "norm1"
  type: "LRN"
  bottom: "L0"
  top: "norm1"
  lrn_param {
    local_size: 5
    alpha: 0.0005
    beta: 0.75
    k: 2
  }
}
layer {
  name: "pool1"
  type: "Pooling"
  bottom: "norm1"
  top: "pool1"
  pooling_param {
    pool: MAX
    kernel_size: 3
    stride: 2
  }
}
layer {
  name: "L1"
  type: "Convolution"
  bottom: "pool1"
  top: "L1"
  param {
    lr_mult: 1
    decay_mult: 1
  }
  param {
    lr_mult: 2
    decay_mult: 0
  }
  convolution_param {
    num_output: 256
    pad: 2
    kernel_size: 5
    group: 1
    weight_filler {
      type: "gaussian"
      std: 0.01
    }
    bias_filler {
      type: "constant"
      value: 1
    }
  }
}
layer {
  name: "relu2"
  type: "ReLU"
  bottom: "L1"
  top: "L1"
}
layer {
  name: "norm2"
  type: "LRN"
  bottom: "L1"
  top: "norm2"
  lrn_param {
    local_size: 5
    alpha: 0.0005
    beta: 0.75
    k: 8
  }
}
layer {
  name: "pool2"
  type: "Pooling"
  bottom: "norm2"
  top: "pool2"
  pooling_param {
    pool: MAX
    kernel_size: 3
    stride: 2
  }
}
layer {
  name: "L2"
  type: "Convolution"
  bottom: "pool2"
  top: "L2"
  param {
    lr_mult: 1
    decay_mult: 1
  }
  param {
    lr_mult: 2
    decay_mult: 0
  }
  convolution_param {
    num_output: 384
    pad: 1
    kernel_size: 3
    weight_filler {
      type: "gaussian"
      std: 0.01
    }
    bias_filler {
      type: "constant"
      value: 0.1
    }
  }
}
layer {
  name: "relu3"
  type: "ReLU"
  bottom: "L2"
  top: "L2"
}
layer {
  name: "L3"
  type: "Convolution"
  bottom: "L2"
  top: "L3"
  param {
    lr_mult: 1
    decay_mult: 1
  }
  param {
    lr_mult: 2
    decay_mult: 0
  }
  convolution_param {
    num_output: 384
    pad: 1
    kernel_size: 3
    group: 1
    weight_filler {
      type: "gaussian"
      std: 0.01
    }
    bias_filler {
      type: "constant"
      value: 0.1
    }
  }
}
layer {
  name: "relu4"
  type: "ReLU"
  bottom: "L3"
  top: "L3"
}
layer {
  name: "L4"
  type: "Convolution"
  bottom: "L3"
  top: "L4"
  param {
    lr_mult: 1
    decay_mult: 1
  }
  param {
    lr_mult: 2
    decay_mult: 0
  }
  convolution_param {
    num_output: 384
    pad: 1
    kernel_size: 3
    group: 1
    weight_filler {
      type: "gaussian"
      std: 0.01
    }
    bias_filler {
      type: "constant"
      value: 0.1
    }
  }
}
layer {
  name: "relu5"
  type: "ReLU"
  bottom: "L4"
  top: "L4"
}
layer {
  name: "pool5"
  type: "Pooling"
  bottom: "L4"
  top: "pool5"
  pooling_param {
    pool: MAX
    kernel_size: 3
    stride: 2
  }
}
layer {
  name: "L5"
  type: "Convolution"
  bottom: "pool5"
  top: "L5"
  param {
    lr_mult: 1
    decay_mult: 1
  }
  param {
    lr_mult: 2
    decay_mult: 0
  }
  convolution_param {
    num_output: 4096
    pad: 3
    kernel_size: 6
    weight_filler {
      type: "gaussian"
      std: 0.01
    }
    bias_filler {
      type: "constant"
      value: 1
    }
  }
}
layer {
  name: "relu6"
  type: "ReLU"
  bottom: "L5"
  top: "L5"
}
layer {
  name: "drop6"
  type: "Dropout"
  bottom: "L5"
  top: "L5"
  dropout_param {
    dropout_ratio: 0.5
  }
}
layer {
  name: "L6a"
  type: "Convolution"
  bottom: "L5"
  top: "L6a"
  param {
    lr_mult: 5
    decay_mult: 0.1
  }
  param {
    lr_mult: 2
    decay_mult: 0
  }
  convolution_param {
    num_output: 4096
    kernel_size: 1
    weight_filler {
      type: "gaussian"
      std: 0.01
    }
    bias_filler {
      type: "constant"
      value: 1
    }
  }
}
layer {
  name: "relu7a"
  type: "ReLU"
  bottom: "L6a"
  top: "L6a"
}
layer {
  name: "drop7a"
  type: "Dropout"
  bottom: "L6a"
  top: "L6a"
  dropout_param {
    dropout_ratio: 0.5
  }
}
layer {
  name: "L6b"
  type: "Convolution"
  bottom: "L5"
  top: "L6b"
  param {
    lr_mult: 5
    decay_mult: 0.1
  }
  param {
    lr_mult: 2
    decay_mult: 0
  }
  convolution_param {
    num_output: 4096
    kernel_size: 1
    weight_filler {
      type: "gaussian"
      std: 0.01
    }
    bias_filler {
      type: "constant"
      value: 1
    }
  }
}
layer {
  name: "relu7b"
  type: "ReLU"
  bottom: "L6b"
  top: "L6b"
}
layer {
  name: "drop7b"
  type: "Dropout"
  bottom: "L6b"
  top: "L6b"
  dropout_param {
    dropout_ratio: 0.5
  }
}
layer {
  name: "L6c"
  type: "Convolution"
  bottom: "L5"
  top: "L6c"
  param {
    lr_mult: 5
    decay_mult: 0.1
  }
  param {
    lr_mult: 2
    decay_mult: 0
  }
  convolution_param {
    num_output: 4096
    kernel_size: 1
    weight_filler {
      type: "gaussian"
      std: 0.01
    }
    bias_filler {
      type: "constant"
      value: 1
    }
  }
}
layer {
  name: "relu7c"
  type: "ReLU"
  bottom: "L6c"
  top: "L6c"
}
layer {
  name: "drop7c"
  type: "Dropout"
  bottom: "L6c"
  top: "L6c"
  dropout_param {
    dropout_ratio: 0.5
  }
}
layer {
  name: "bb-output"
  type: "Convolution"
  bottom: "L6a"
  top: "bb-output"
  param {
    lr_mult: 20
    decay_mult: 0.1
  }
  param {
    lr_mult: 20
    decay_mult: 0
  }
  convolution_param {
    num_output: 256
    kernel_size: 1
    weight_filler {
      type: "gaussian"
      std: 0.01
    }
    bias_filler {
      type: "constant"
      value: 0
    }
  }
}
layer {
  name: "pixel-conv"
  type: "Convolution"
  bottom: "L6b"
  top: "pixel-conv"
  param {
    lr_mult: 1
    decay_mult: 1
  }
  param {
    lr_mult: 2
    decay_mult: 0
  }
  convolution_param {
    num_output: 128
    kernel_size: 1
    weight_filler {
      type: "gaussian"
      std: 0.01
    }
    bias_filler {
      type: "constant"
      value: 0
    }
  }
}
layer {
  name: "type-conv"
  type: "Convolution"
  bottom: "L6c"
  top: "type-conv"
  param {
    lr_mult: 1
    decay_mult: 1
  }
  param {
    lr_mult: 2
    decay_mult: 0
  }
  convolution_param {
    num_output: 1024
    kernel_size: 1
    weight_filler {
      type: "gaussian"
      std: 0.01
    }
    bias_filler {
      type: "constant"
      value: 0
    }
  }
}
layer {
  name: "pixel-tile"
  type: "Tiling"
  bottom: "pixel-conv"
  top: "pixel-conv-tiled"
  tiling_param {
    tile_dim: 8
  }
}
layer {
  name: "bb-tile"
  type: "Tiling"
  bottom: "bb-output"
  top: "bb-output-tiled"
  tiling_param {
    tile_dim: 8
  }
}
layer {
  name: "type-tile"
  type: "Tiling"
  bottom: "type-conv"
  top: "type-conv-tiled"
  tiling_param {
    tile_dim: 4
  }
}
layer {
  name: "pixel-loss"
  type: "SoftmaxWithLoss"
  bottom: "pixel-conv-tiled"
  bottom: "pixel-label"
  top: "pixel-loss"
  loss_weight: 1
}
layer {
  name: "type-loss"
  type: "SoftmaxWithLoss"
  bottom: "type-conv-tiled"
  bottom: "type"
  top: "type-loss"
  loss_weight: 1
}
layer {
  name: "bb-prob-mask"
  type: "Eltwise"
  bottom: "bb-output-tiled"
  bottom: "pixel-block"
  top: "bb-masked-output"
  eltwise_param {
    operation: PROD
  }
}
layer {
  name: "bb-size-normalization"
  type: "Eltwise"
  bottom: "bb-masked-output"
  bottom: "size-block"
  top: "bb-masked-output-sn"
  eltwise_param {
    operation: PROD
  }
}
layer {
  name: "bb-num-pixel-normalization"
  type: "Eltwise"
  bottom: "bb-masked-output-sn"
  bottom: "norm-block"
  top: "bb-masked-output-sn-nn"
  eltwise_param {
    operation: PROD
  }
}
layer {
  name: "bb-loss"
  type: "L1Loss"
  bottom: "bb-masked-output-sn-nn"
  bottom: "bb-label-sn-nn"
  top: "bb-loss"
  loss_weight: 3
}
I1221 07:01:51.347245  2005 layer_factory.hpp:76] Creating layer data
I1221 07:01:51.347460  2005 net.cpp:110] Creating Layer data
I1221 07:01:51.347471  2005 net.cpp:432] data -> data
I1221 07:01:51.347496  2005 net.cpp:432] data -> label
I1221 07:01:51.347503  2005 net.cpp:432] data -> type
I1221 07:01:51.347513  2005 data_transformer.cpp:23] Loading mean file from: ./driving_mean_train.binaryproto
I1221 07:01:51.348348  2008 db_lmdb.cpp:22] Opened lmdb ./LMDB_train
I1221 07:01:51.360236  2005 drive_data_layer.cpp:49] output data size: 24,3,480,640
I1221 07:01:51.553685  2005 net.cpp:155] Setting up data
I1221 07:01:51.553717  2005 net.cpp:163] Top shape: 24 3 480 640 (22118400)
I1221 07:01:51.553727  2005 net.cpp:163] Top shape: 24 8 120 160 (3686400)
I1221 07:01:51.553731  2005 net.cpp:163] Top shape: 24 1 60 80 (115200)
I1221 07:01:51.553741  2005 layer_factory.hpp:76] Creating layer slice-label
I1221 07:01:51.553753  2005 net.cpp:110] Creating Layer slice-label
I1221 07:01:51.553761  2005 net.cpp:476] slice-label <- label
I1221 07:01:51.553776  2005 net.cpp:432] slice-label -> pixel-label
I1221 07:01:51.553786  2005 net.cpp:432] slice-label -> bb-label
I1221 07:01:51.553792  2005 net.cpp:432] slice-label -> size-label
I1221 07:01:51.553798  2005 net.cpp:432] slice-label -> norm-label
I1221 07:01:51.553828  2005 net.cpp:155] Setting up slice-label
I1221 07:01:51.553831  2005 net.cpp:163] Top shape: 24 1 120 160 (460800)
I1221 07:01:51.553836  2005 net.cpp:163] Top shape: 24 4 120 160 (1843200)
I1221 07:01:51.553841  2005 net.cpp:163] Top shape: 24 2 120 160 (921600)
I1221 07:01:51.553846  2005 net.cpp:163] Top shape: 24 1 120 160 (460800)
I1221 07:01:51.553850  2005 layer_factory.hpp:76] Creating layer pixel-label_slice-label_0_split
I1221 07:01:51.553858  2005 net.cpp:110] Creating Layer pixel-label_slice-label_0_split
I1221 07:01:51.553862  2005 net.cpp:476] pixel-label_slice-label_0_split <- pixel-label
I1221 07:01:51.553877  2005 net.cpp:432] pixel-label_slice-label_0_split -> pixel-label_slice-label_0_split_0
I1221 07:01:51.553895  2005 net.cpp:432] pixel-label_slice-label_0_split -> pixel-label_slice-label_0_split_1
I1221 07:01:51.553902  2005 net.cpp:432] pixel-label_slice-label_0_split -> pixel-label_slice-label_0_split_2
I1221 07:01:51.553907  2005 net.cpp:432] pixel-label_slice-label_0_split -> pixel-label_slice-label_0_split_3
I1221 07:01:51.553913  2005 net.cpp:432] pixel-label_slice-label_0_split -> pixel-label_slice-label_0_split_4
I1221 07:01:51.553926  2005 net.cpp:155] Setting up pixel-label_slice-label_0_split
I1221 07:01:51.553931  2005 net.cpp:163] Top shape: 24 1 120 160 (460800)
I1221 07:01:51.553936  2005 net.cpp:163] Top shape: 24 1 120 160 (460800)
I1221 07:01:51.553941  2005 net.cpp:163] Top shape: 24 1 120 160 (460800)
I1221 07:01:51.553944  2005 net.cpp:163] Top shape: 24 1 120 160 (460800)
I1221 07:01:51.553949  2005 net.cpp:163] Top shape: 24 1 120 160 (460800)
I1221 07:01:51.553954  2005 layer_factory.hpp:76] Creating layer size-label_slice-label_2_split
I1221 07:01:51.553959  2005 net.cpp:110] Creating Layer size-label_slice-label_2_split
I1221 07:01:51.553963  2005 net.cpp:476] size-label_slice-label_2_split <- size-label
I1221 07:01:51.553968  2005 net.cpp:432] size-label_slice-label_2_split -> size-label_slice-label_2_split_0
I1221 07:01:51.553974  2005 net.cpp:432] size-label_slice-label_2_split -> size-label_slice-label_2_split_1
I1221 07:01:51.553980  2005 net.cpp:155] Setting up size-label_slice-label_2_split
I1221 07:01:51.553983  2005 net.cpp:163] Top shape: 24 2 120 160 (921600)
I1221 07:01:51.553988  2005 net.cpp:163] Top shape: 24 2 120 160 (921600)
I1221 07:01:51.553993  2005 layer_factory.hpp:76] Creating layer norm-label_slice-label_3_split
I1221 07:01:51.553999  2005 net.cpp:110] Creating Layer norm-label_slice-label_3_split
I1221 07:01:51.554003  2005 net.cpp:476] norm-label_slice-label_3_split <- norm-label
I1221 07:01:51.554009  2005 net.cpp:432] norm-label_slice-label_3_split -> norm-label_slice-label_3_split_0
I1221 07:01:51.554014  2005 net.cpp:432] norm-label_slice-label_3_split -> norm-label_slice-label_3_split_1
I1221 07:01:51.554020  2005 net.cpp:432] norm-label_slice-label_3_split -> norm-label_slice-label_3_split_2
I1221 07:01:51.554025  2005 net.cpp:432] norm-label_slice-label_3_split -> norm-label_slice-label_3_split_3
I1221 07:01:51.554031  2005 net.cpp:155] Setting up norm-label_slice-label_3_split
I1221 07:01:51.554035  2005 net.cpp:163] Top shape: 24 1 120 160 (460800)
I1221 07:01:51.554040  2005 net.cpp:163] Top shape: 24 1 120 160 (460800)
I1221 07:01:51.554044  2005 net.cpp:163] Top shape: 24 1 120 160 (460800)
I1221 07:01:51.554049  2005 net.cpp:163] Top shape: 24 1 120 160 (460800)
I1221 07:01:51.554054  2005 layer_factory.hpp:76] Creating layer pixel-block
I1221 07:01:51.554061  2005 net.cpp:110] Creating Layer pixel-block
I1221 07:01:51.554065  2005 net.cpp:476] pixel-block <- pixel-label_slice-label_0_split_0
I1221 07:01:51.554070  2005 net.cpp:476] pixel-block <- pixel-label_slice-label_0_split_1
I1221 07:01:51.554075  2005 net.cpp:476] pixel-block <- pixel-label_slice-label_0_split_2
I1221 07:01:51.554080  2005 net.cpp:476] pixel-block <- pixel-label_slice-label_0_split_3
I1221 07:01:51.554085  2005 net.cpp:432] pixel-block -> pixel-block
I1221 07:01:51.554093  2005 net.cpp:155] Setting up pixel-block
I1221 07:01:51.554097  2005 net.cpp:163] Top shape: 24 4 120 160 (1843200)
I1221 07:01:51.554102  2005 layer_factory.hpp:76] Creating layer size-block
I1221 07:01:51.554106  2005 net.cpp:110] Creating Layer size-block
I1221 07:01:51.554111  2005 net.cpp:476] size-block <- size-label_slice-label_2_split_0
I1221 07:01:51.554116  2005 net.cpp:476] size-block <- size-label_slice-label_2_split_1
I1221 07:01:51.554121  2005 net.cpp:432] size-block -> size-block
I1221 07:01:51.554126  2005 net.cpp:155] Setting up size-block
I1221 07:01:51.554129  2005 net.cpp:163] Top shape: 24 4 120 160 (1843200)
I1221 07:01:51.554134  2005 layer_factory.hpp:76] Creating layer size-block_size-block_0_split
I1221 07:01:51.554141  2005 net.cpp:110] Creating Layer size-block_size-block_0_split
I1221 07:01:51.554150  2005 net.cpp:476] size-block_size-block_0_split <- size-block
I1221 07:01:51.554155  2005 net.cpp:432] size-block_size-block_0_split -> size-block_size-block_0_split_0
I1221 07:01:51.554162  2005 net.cpp:432] size-block_size-block_0_split -> size-block_size-block_0_split_1
I1221 07:01:51.554167  2005 net.cpp:155] Setting up size-block_size-block_0_split
I1221 07:01:51.554172  2005 net.cpp:163] Top shape: 24 4 120 160 (1843200)
I1221 07:01:51.554175  2005 net.cpp:163] Top shape: 24 4 120 160 (1843200)
I1221 07:01:51.554180  2005 layer_factory.hpp:76] Creating layer norm-block
I1221 07:01:51.554185  2005 net.cpp:110] Creating Layer norm-block
I1221 07:01:51.554190  2005 net.cpp:476] norm-block <- norm-label_slice-label_3_split_0
I1221 07:01:51.554194  2005 net.cpp:476] norm-block <- norm-label_slice-label_3_split_1
I1221 07:01:51.554198  2005 net.cpp:476] norm-block <- norm-label_slice-label_3_split_2
I1221 07:01:51.554203  2005 net.cpp:476] norm-block <- norm-label_slice-label_3_split_3
I1221 07:01:51.554208  2005 net.cpp:432] norm-block -> norm-block
I1221 07:01:51.554214  2005 net.cpp:155] Setting up norm-block
I1221 07:01:51.554217  2005 net.cpp:163] Top shape: 24 4 120 160 (1843200)
I1221 07:01:51.554222  2005 layer_factory.hpp:76] Creating layer norm-block_norm-block_0_split
I1221 07:01:51.554227  2005 net.cpp:110] Creating Layer norm-block_norm-block_0_split
I1221 07:01:51.554231  2005 net.cpp:476] norm-block_norm-block_0_split <- norm-block
I1221 07:01:51.554236  2005 net.cpp:432] norm-block_norm-block_0_split -> norm-block_norm-block_0_split_0
I1221 07:01:51.554241  2005 net.cpp:432] norm-block_norm-block_0_split -> norm-block_norm-block_0_split_1
I1221 07:01:51.554247  2005 net.cpp:155] Setting up norm-block_norm-block_0_split
I1221 07:01:51.554250  2005 net.cpp:163] Top shape: 24 4 120 160 (1843200)
I1221 07:01:51.554255  2005 net.cpp:163] Top shape: 24 4 120 160 (1843200)
I1221 07:01:51.554260  2005 layer_factory.hpp:76] Creating layer bb-label-size-normalization
I1221 07:01:51.554270  2005 net.cpp:110] Creating Layer bb-label-size-normalization
I1221 07:01:51.554273  2005 net.cpp:476] bb-label-size-normalization <- bb-label
I1221 07:01:51.554278  2005 net.cpp:476] bb-label-size-normalization <- size-block_size-block_0_split_0
I1221 07:01:51.554283  2005 net.cpp:432] bb-label-size-normalization -> bb-label-sn
I1221 07:01:51.554291  2005 net.cpp:155] Setting up bb-label-size-normalization
I1221 07:01:51.554296  2005 net.cpp:163] Top shape: 24 4 120 160 (1843200)
I1221 07:01:51.554301  2005 layer_factory.hpp:76] Creating layer bb-label-num-pixel-normalization
I1221 07:01:51.554304  2005 net.cpp:110] Creating Layer bb-label-num-pixel-normalization
I1221 07:01:51.554320  2005 net.cpp:476] bb-label-num-pixel-normalization <- bb-label-sn
I1221 07:01:51.554324  2005 net.cpp:476] bb-label-num-pixel-normalization <- norm-block_norm-block_0_split_0
I1221 07:01:51.554329  2005 net.cpp:432] bb-label-num-pixel-normalization -> bb-label-sn-nn
I1221 07:01:51.554334  2005 net.cpp:155] Setting up bb-label-num-pixel-normalization
I1221 07:01:51.554337  2005 net.cpp:163] Top shape: 24 4 120 160 (1843200)
I1221 07:01:51.554342  2005 layer_factory.hpp:76] Creating layer L0
I1221 07:01:51.554352  2005 net.cpp:110] Creating Layer L0
I1221 07:01:51.554355  2005 net.cpp:476] L0 <- data
I1221 07:01:51.554360  2005 net.cpp:432] L0 -> L0
I1221 07:01:51.561615  2005 net.cpp:155] Setting up L0
I1221 07:01:51.561648  2005 net.cpp:163] Top shape: 24 96 118 158 (42955776)
I1221 07:01:51.561679  2005 layer_factory.hpp:76] Creating layer relu1
I1221 07:01:51.561689  2005 net.cpp:110] Creating Layer relu1
I1221 07:01:51.561695  2005 net.cpp:476] relu1 <- L0
I1221 07:01:51.561702  2005 net.cpp:419] relu1 -> L0 (in-place)
I1221 07:01:51.561718  2005 net.cpp:155] Setting up relu1
I1221 07:01:51.561723  2005 net.cpp:163] Top shape: 24 96 118 158 (42955776)
I1221 07:01:51.561728  2005 layer_factory.hpp:76] Creating layer norm1
I1221 07:01:51.561746  2005 net.cpp:110] Creating Layer norm1
I1221 07:01:51.561761  2005 net.cpp:476] norm1 <- L0
I1221 07:01:51.561767  2005 net.cpp:432] norm1 -> norm1
I1221 07:01:51.561777  2005 net.cpp:155] Setting up norm1
I1221 07:01:51.561781  2005 net.cpp:163] Top shape: 24 96 118 158 (42955776)
I1221 07:01:51.561787  2005 layer_factory.hpp:76] Creating layer pool1
I1221 07:01:51.561794  2005 net.cpp:110] Creating Layer pool1
I1221 07:01:51.561800  2005 net.cpp:476] pool1 <- norm1
I1221 07:01:51.561805  2005 net.cpp:432] pool1 -> pool1
I1221 07:01:51.561827  2005 net.cpp:155] Setting up pool1
I1221 07:01:51.561832  2005 net.cpp:163] Top shape: 24 96 59 79 (10738944)
I1221 07:01:51.561837  2005 layer_factory.hpp:76] Creating layer L1
I1221 07:01:51.561846  2005 net.cpp:110] Creating Layer L1
I1221 07:01:51.561851  2005 net.cpp:476] L1 <- pool1
I1221 07:01:51.561856  2005 net.cpp:432] L1 -> L1
I1221 07:01:51.568109  2005 net.cpp:155] Setting up L1
I1221 07:01:51.568136  2005 net.cpp:163] Top shape: 24 256 59 79 (28637184)
I1221 07:01:51.568150  2005 layer_factory.hpp:76] Creating layer relu2
I1221 07:01:51.568157  2005 net.cpp:110] Creating Layer relu2
I1221 07:01:51.568163  2005 net.cpp:476] relu2 <- L1
I1221 07:01:51.568169  2005 net.cpp:419] relu2 -> L1 (in-place)
I1221 07:01:51.568176  2005 net.cpp:155] Setting up relu2
I1221 07:01:51.568181  2005 net.cpp:163] Top shape: 24 256 59 79 (28637184)
I1221 07:01:51.568186  2005 layer_factory.hpp:76] Creating layer norm2
I1221 07:01:51.568190  2005 net.cpp:110] Creating Layer norm2
I1221 07:01:51.568194  2005 net.cpp:476] norm2 <- L1
I1221 07:01:51.568199  2005 net.cpp:432] norm2 -> norm2
I1221 07:01:51.568207  2005 net.cpp:155] Setting up norm2
I1221 07:01:51.568209  2005 net.cpp:163] Top shape: 24 256 59 79 (28637184)
I1221 07:01:51.568214  2005 layer_factory.hpp:76] Creating layer pool2
I1221 07:01:51.568219  2005 net.cpp:110] Creating Layer pool2
I1221 07:01:51.568223  2005 net.cpp:476] pool2 <- norm2
I1221 07:01:51.568228  2005 net.cpp:432] pool2 -> pool2
I1221 07:01:51.568236  2005 net.cpp:155] Setting up pool2
I1221 07:01:51.568240  2005 net.cpp:163] Top shape: 24 256 29 39 (6948864)
I1221 07:01:51.568244  2005 layer_factory.hpp:76] Creating layer L2
I1221 07:01:51.568251  2005 net.cpp:110] Creating Layer L2
I1221 07:01:51.568255  2005 net.cpp:476] L2 <- pool2
I1221 07:01:51.568260  2005 net.cpp:432] L2 -> L2
I1221 07:01:51.579334  2005 net.cpp:155] Setting up L2
I1221 07:01:51.579358  2005 net.cpp:163] Top shape: 24 384 29 39 (10423296)
I1221 07:01:51.579375  2005 layer_factory.hpp:76] Creating layer relu3
I1221 07:01:51.579385  2005 net.cpp:110] Creating Layer relu3
I1221 07:01:51.579391  2005 net.cpp:476] relu3 <- L2
I1221 07:01:51.579401  2005 net.cpp:419] relu3 -> L2 (in-place)
I1221 07:01:51.579409  2005 net.cpp:155] Setting up relu3
I1221 07:01:51.579416  2005 net.cpp:163] Top shape: 24 384 29 39 (10423296)
I1221 07:01:51.579423  2005 layer_factory.hpp:76] Creating layer L3
I1221 07:01:51.579432  2005 net.cpp:110] Creating Layer L3
I1221 07:01:51.579438  2005 net.cpp:476] L3 <- L2
I1221 07:01:51.579447  2005 net.cpp:432] L3 -> L3
I1221 07:01:51.598086  2005 net.cpp:155] Setting up L3
I1221 07:01:51.598111  2005 net.cpp:163] Top shape: 24 384 29 39 (10423296)
I1221 07:01:51.598125  2005 layer_factory.hpp:76] Creating layer relu4
I1221 07:01:51.598135  2005 net.cpp:110] Creating Layer relu4
I1221 07:01:51.598142  2005 net.cpp:476] relu4 <- L3
I1221 07:01:51.598151  2005 net.cpp:419] relu4 -> L3 (in-place)
I1221 07:01:51.598161  2005 net.cpp:155] Setting up relu4
I1221 07:01:51.598166  2005 net.cpp:163] Top shape: 24 384 29 39 (10423296)
I1221 07:01:51.598174  2005 layer_factory.hpp:76] Creating layer L4
I1221 07:01:51.598183  2005 net.cpp:110] Creating Layer L4
I1221 07:01:51.598191  2005 net.cpp:476] L4 <- L3
I1221 07:01:51.598198  2005 net.cpp:432] L4 -> L4
I1221 07:01:51.616124  2005 net.cpp:155] Setting up L4
I1221 07:01:51.616147  2005 net.cpp:163] Top shape: 24 384 29 39 (10423296)
I1221 07:01:51.616164  2005 layer_factory.hpp:76] Creating layer relu5
I1221 07:01:51.616183  2005 net.cpp:110] Creating Layer relu5
I1221 07:01:51.616204  2005 net.cpp:476] relu5 <- L4
I1221 07:01:51.616211  2005 net.cpp:419] relu5 -> L4 (in-place)
I1221 07:01:51.616219  2005 net.cpp:155] Setting up relu5
I1221 07:01:51.616225  2005 net.cpp:163] Top shape: 24 384 29 39 (10423296)
I1221 07:01:51.616232  2005 layer_factory.hpp:76] Creating layer pool5
I1221 07:01:51.616240  2005 net.cpp:110] Creating Layer pool5
I1221 07:01:51.616245  2005 net.cpp:476] pool5 <- L4
I1221 07:01:51.616252  2005 net.cpp:432] pool5 -> pool5
I1221 07:01:51.616263  2005 net.cpp:155] Setting up pool5
I1221 07:01:51.616269  2005 net.cpp:163] Top shape: 24 384 14 19 (2451456)
I1221 07:01:51.616276  2005 layer_factory.hpp:76] Creating layer L5
I1221 07:01:51.616286  2005 net.cpp:110] Creating Layer L5
I1221 07:01:51.616291  2005 net.cpp:476] L5 <- pool5
I1221 07:01:51.616298  2005 net.cpp:432] L5 -> L5
I1221 07:01:52.425426  2005 net.cpp:155] Setting up L5
I1221 07:01:52.425467  2005 net.cpp:163] Top shape: 24 4096 15 20 (29491200)
I1221 07:01:52.425484  2005 layer_factory.hpp:76] Creating layer relu6
I1221 07:01:52.425495  2005 net.cpp:110] Creating Layer relu6
I1221 07:01:52.425503  2005 net.cpp:476] relu6 <- L5
I1221 07:01:52.425513  2005 net.cpp:419] relu6 -> L5 (in-place)
I1221 07:01:52.425524  2005 net.cpp:155] Setting up relu6
I1221 07:01:52.425529  2005 net.cpp:163] Top shape: 24 4096 15 20 (29491200)
I1221 07:01:52.425536  2005 layer_factory.hpp:76] Creating layer drop6
I1221 07:01:52.425549  2005 net.cpp:110] Creating Layer drop6
I1221 07:01:52.425554  2005 net.cpp:476] drop6 <- L5
I1221 07:01:52.425561  2005 net.cpp:419] drop6 -> L5 (in-place)
I1221 07:01:52.425577  2005 net.cpp:155] Setting up drop6
I1221 07:01:52.425582  2005 net.cpp:163] Top shape: 24 4096 15 20 (29491200)
I1221 07:01:52.425590  2005 layer_factory.hpp:76] Creating layer L5_drop6_0_split
I1221 07:01:52.425597  2005 net.cpp:110] Creating Layer L5_drop6_0_split
I1221 07:01:52.425603  2005 net.cpp:476] L5_drop6_0_split <- L5
I1221 07:01:52.425611  2005 net.cpp:432] L5_drop6_0_split -> L5_drop6_0_split_0
I1221 07:01:52.425619  2005 net.cpp:432] L5_drop6_0_split -> L5_drop6_0_split_1
I1221 07:01:52.425628  2005 net.cpp:432] L5_drop6_0_split -> L5_drop6_0_split_2
I1221 07:01:52.425637  2005 net.cpp:155] Setting up L5_drop6_0_split
I1221 07:01:52.425642  2005 net.cpp:163] Top shape: 24 4096 15 20 (29491200)
I1221 07:01:52.425657  2005 net.cpp:163] Top shape: 24 4096 15 20 (29491200)
I1221 07:01:52.425663  2005 net.cpp:163] Top shape: 24 4096 15 20 (29491200)
I1221 07:01:52.425670  2005 layer_factory.hpp:76] Creating layer L6a
I1221 07:01:52.425680  2005 net.cpp:110] Creating Layer L6a
I1221 07:01:52.425686  2005 net.cpp:476] L6a <- L5_drop6_0_split_0
I1221 07:01:52.425695  2005 net.cpp:432] L6a -> L6a
I1221 07:01:52.667205  2005 net.cpp:155] Setting up L6a
I1221 07:01:52.667253  2005 net.cpp:163] Top shape: 24 4096 15 20 (29491200)
I1221 07:01:52.667289  2005 layer_factory.hpp:76] Creating layer relu7a
I1221 07:01:52.667304  2005 net.cpp:110] Creating Layer relu7a
I1221 07:01:52.667312  2005 net.cpp:476] relu7a <- L6a
I1221 07:01:52.667323  2005 net.cpp:419] relu7a -> L6a (in-place)
I1221 07:01:52.667336  2005 net.cpp:155] Setting up relu7a
I1221 07:01:52.667342  2005 net.cpp:163] Top shape: 24 4096 15 20 (29491200)
I1221 07:01:52.667351  2005 layer_factory.hpp:76] Creating layer drop7a
I1221 07:01:52.667361  2005 net.cpp:110] Creating Layer drop7a
I1221 07:01:52.667367  2005 net.cpp:476] drop7a <- L6a
I1221 07:01:52.667376  2005 net.cpp:419] drop7a -> L6a (in-place)
I1221 07:01:52.667387  2005 net.cpp:155] Setting up drop7a
I1221 07:01:52.667392  2005 net.cpp:163] Top shape: 24 4096 15 20 (29491200)
I1221 07:01:52.667402  2005 layer_factory.hpp:76] Creating layer L6b
I1221 07:01:52.667412  2005 net.cpp:110] Creating Layer L6b
I1221 07:01:52.667419  2005 net.cpp:476] L6b <- L5_drop6_0_split_1
I1221 07:01:52.667429  2005 net.cpp:432] L6b -> L6b
I1221 07:01:52.910208  2005 net.cpp:155] Setting up L6b
I1221 07:01:52.910246  2005 net.cpp:163] Top shape: 24 4096 15 20 (29491200)
I1221 07:01:52.910286  2005 layer_factory.hpp:76] Creating layer relu7b
I1221 07:01:52.910296  2005 net.cpp:110] Creating Layer relu7b
I1221 07:01:52.910302  2005 net.cpp:476] relu7b <- L6b
I1221 07:01:52.910310  2005 net.cpp:419] relu7b -> L6b (in-place)
I1221 07:01:52.910320  2005 net.cpp:155] Setting up relu7b
I1221 07:01:52.910323  2005 net.cpp:163] Top shape: 24 4096 15 20 (29491200)
I1221 07:01:52.910328  2005 layer_factory.hpp:76] Creating layer drop7b
I1221 07:01:52.910336  2005 net.cpp:110] Creating Layer drop7b
I1221 07:01:52.910339  2005 net.cpp:476] drop7b <- L6b
I1221 07:01:52.910344  2005 net.cpp:419] drop7b -> L6b (in-place)
I1221 07:01:52.910352  2005 net.cpp:155] Setting up drop7b
I1221 07:01:52.910356  2005 net.cpp:163] Top shape: 24 4096 15 20 (29491200)
I1221 07:01:52.910362  2005 layer_factory.hpp:76] Creating layer L6c
I1221 07:01:52.910368  2005 net.cpp:110] Creating Layer L6c
I1221 07:01:52.910373  2005 net.cpp:476] L6c <- L5_drop6_0_split_2
I1221 07:01:52.910379  2005 net.cpp:432] L6c -> L6c
I1221 07:01:53.076725  2005 net.cpp:155] Setting up L6c
I1221 07:01:53.076759  2005 net.cpp:163] Top shape: 24 4096 15 20 (29491200)
I1221 07:01:53.076777  2005 layer_factory.hpp:76] Creating layer relu7c
I1221 07:01:53.076786  2005 net.cpp:110] Creating Layer relu7c
I1221 07:01:53.076792  2005 net.cpp:476] relu7c <- L6c
I1221 07:01:53.076799  2005 net.cpp:419] relu7c -> L6c (in-place)
I1221 07:01:53.076808  2005 net.cpp:155] Setting up relu7c
I1221 07:01:53.076812  2005 net.cpp:163] Top shape: 24 4096 15 20 (29491200)
I1221 07:01:53.076817  2005 layer_factory.hpp:76] Creating layer drop7c
I1221 07:01:53.076822  2005 net.cpp:110] Creating Layer drop7c
I1221 07:01:53.076826  2005 net.cpp:476] drop7c <- L6c
I1221 07:01:53.076831  2005 net.cpp:419] drop7c -> L6c (in-place)
I1221 07:01:53.076838  2005 net.cpp:155] Setting up drop7c
I1221 07:01:53.076843  2005 net.cpp:163] Top shape: 24 4096 15 20 (29491200)
I1221 07:01:53.076846  2005 layer_factory.hpp:76] Creating layer bb-output
I1221 07:01:53.076854  2005 net.cpp:110] Creating Layer bb-output
I1221 07:01:53.076858  2005 net.cpp:476] bb-output <- L6a
I1221 07:01:53.076864  2005 net.cpp:432] bb-output -> bb-output
I1221 07:01:53.087641  2005 net.cpp:155] Setting up bb-output
I1221 07:01:53.087666  2005 net.cpp:163] Top shape: 24 256 15 20 (1843200)
I1221 07:01:53.087695  2005 layer_factory.hpp:76] Creating layer pixel-conv
I1221 07:01:53.087703  2005 net.cpp:110] Creating Layer pixel-conv
I1221 07:01:53.087709  2005 net.cpp:476] pixel-conv <- L6b
I1221 07:01:53.087718  2005 net.cpp:432] pixel-conv -> pixel-conv
I1221 07:01:53.092813  2005 net.cpp:155] Setting up pixel-conv
I1221 07:01:53.092835  2005 net.cpp:163] Top shape: 24 128 15 20 (921600)
I1221 07:01:53.092845  2005 layer_factory.hpp:76] Creating layer type-conv
I1221 07:01:53.092854  2005 net.cpp:110] Creating Layer type-conv
I1221 07:01:53.092859  2005 net.cpp:476] type-conv <- L6c
I1221 07:01:53.092866  2005 net.cpp:432] type-conv -> type-conv
I1221 07:01:53.133605  2005 net.cpp:155] Setting up type-conv
I1221 07:01:53.133626  2005 net.cpp:163] Top shape: 24 1024 15 20 (7372800)
I1221 07:01:53.133642  2005 layer_factory.hpp:76] Creating layer pixel-tile
I1221 07:01:53.133661  2005 net.cpp:110] Creating Layer pixel-tile
I1221 07:01:53.133667  2005 net.cpp:476] pixel-tile <- pixel-conv
I1221 07:01:53.133674  2005 net.cpp:432] pixel-tile -> pixel-conv-tiled
I1221 07:01:53.133685  2005 net.cpp:155] Setting up pixel-tile
I1221 07:01:53.133689  2005 net.cpp:163] Top shape: 24 2 120 160 (921600)
I1221 07:01:53.133694  2005 layer_factory.hpp:76] Creating layer bb-tile
I1221 07:01:53.133699  2005 net.cpp:110] Creating Layer bb-tile
I1221 07:01:53.133703  2005 net.cpp:476] bb-tile <- bb-output
I1221 07:01:53.133709  2005 net.cpp:432] bb-tile -> bb-output-tiled
I1221 07:01:53.133714  2005 net.cpp:155] Setting up bb-tile
I1221 07:01:53.133718  2005 net.cpp:163] Top shape: 24 4 120 160 (1843200)
I1221 07:01:53.133723  2005 layer_factory.hpp:76] Creating layer type-tile
I1221 07:01:53.133738  2005 net.cpp:110] Creating Layer type-tile
I1221 07:01:53.133754  2005 net.cpp:476] type-tile <- type-conv
I1221 07:01:53.133759  2005 net.cpp:432] type-tile -> type-conv-tiled
I1221 07:01:53.133765  2005 net.cpp:155] Setting up type-tile
I1221 07:01:53.133769  2005 net.cpp:163] Top shape: 24 64 60 80 (7372800)
I1221 07:01:53.133774  2005 layer_factory.hpp:76] Creating layer pixel-loss
I1221 07:01:53.133780  2005 net.cpp:110] Creating Layer pixel-loss
I1221 07:01:53.133783  2005 net.cpp:476] pixel-loss <- pixel-conv-tiled
I1221 07:01:53.133788  2005 net.cpp:476] pixel-loss <- pixel-label_slice-label_0_split_4
I1221 07:01:53.133793  2005 net.cpp:432] pixel-loss -> pixel-loss
I1221 07:01:53.133801  2005 layer_factory.hpp:76] Creating layer pixel-loss
…
I1221 07:01:53.155561  2005 net.cpp:50] Initializing net from parameters: 
name: "VPGNet-noVP"
state {
  phase: TEST
}
layer {
  name: "data"
  type: "DriveData"
  top: "data"
  top: "label"
  top: "type"
  include {
    phase: TEST
  }
  transform_param {
    mean_file: "./driving_mean_train.binaryproto"
  }
  data_param {
    source: "./LMDB_test"
    batch_size: 10
    backend: LMDB
  }
  drive_data_param {
    shrink_prob_factor: 1
    unrecognize_factor: 0
    crop_num: 1
    random_crop_ratio: 1
    resize: 1
    scale: 1
    catalog_resolution: 4
    reco_min: 4
    train_min: 4
  }
}
layer {
  name: "slice-label"
  type: "Slice"
  bottom: "label"
  top: "pixel-label"
  top: "bb-label"
  top: "size-label"
  top: "norm-label"
  slice_param {
    slice_dim: 1
    slice_point: 1
    slice_point: 5
    slice_point: 7
  }
}
layer {
  name: "pixel-block"
  type: "Concat"
  bottom: "pixel-label"
  bottom: "pixel-label"
  bottom: "pixel-label"
  bottom: "pixel-label"
  top: "pixel-block"
  concat_param {
    concat_dim: 1
  }
}
layer {
  name: "size-block"
  type: "Concat"
  bottom: "size-label"
  bottom: "size-label"
  top: "size-block"
  concat_param {
    concat_dim: 1
  }
}
layer {
  name: "norm-block"
  type: "Concat"
  bottom: "norm-label"
  bottom: "norm-label"
  bottom: "norm-label"
  bottom: "norm-label"
  top: "norm-block"
  concat_param {
    concat_dim: 1
  }
}
layer {
  name: "bb-label-size-normalization"
  type: "Eltwise"
  bottom: "bb-label"
  bottom: "size-block"
  top: "bb-label-sn"
  eltwise_param {
    operation: PROD
  }
}
layer {
  name: "bb-label-num-pixel-normalization"
  type: "Eltwise"
  bottom: "bb-label-sn"
  bottom: "norm-block"
  top: "bb-label-sn-nn"
  eltwise_param {
    operation: PROD
  }
}
layer {
  name: "L0"
  type: "Convolution"
  bottom: "data"
  top: "L0"
  param {
    lr_mult: 1
    decay_mult: 1
  }
  param {
    lr_mult: 2
    decay_mult: 0
  }
  convolution_param {
    num_output: 96
    kernel_size: 11
    stride: 4
    weight_filler {
      type: "gaussian"
      std: 0.01
    }
    bias_filler {
      type: "constant"
      value: 1
    }
  }
}
layer {
  name: "relu1"
  type: "ReLU"
  bottom: "L0"
  top: "L0"
}
layer {
  name: "norm1"
  type: "LRN"
  bottom: "L0"
  top: "norm1"
  lrn_param {
    local_size: 5
    alpha: 0.0005
    beta: 0.75
    k: 2
  }
}
layer {
  name: "pool1"
  type: "Pooling"
  bottom: "norm1"
  top: "pool1"
  pooling_param {
    pool: MAX
    kernel_size: 3
    stride: 2
  }
}
layer {
  name: "L1"
  type: "Convolution"
  bottom: "pool1"
  top: "L1"
  param {
    lr_mult: 1
    decay_mult: 1
  }
  param {
    lr_mult: 2
    decay_mult: 0
  }
  convolution_param {
    num_output: 256
    pad: 2
    kernel_size: 5
    group: 1
    weight_filler {
      type: "gaussian"
      std: 0.01
    }
    bias_filler {
      type: "constant"
      value: 1
    }
  }
}
layer {
  name: "relu2"
  type: "ReLU"
  bottom: "L1"
  top: "L1"
}
layer {
  name: "norm2"
  type: "LRN"
  bottom: "L1"
  top: "norm2"
  lrn_param {
    local_size: 5
    alpha: 0.0005
    beta: 0.75
    k: 8
  }
}
layer {
  name: "pool2"
  type: "Pooling"
  bottom: "norm2"
  top: "pool2"
  pooling_param {
    pool: MAX
    kernel_size: 3
    stride: 2
  }
}
layer {
  name: "L2"
  type: "Convolution"
  bottom: "pool2"
  top: "L2"
  param {
    lr_mult: 1
    decay_mult: 1
  }
  param {
    lr_mult: 2
    decay_mult: 0
  }
  convolution_param {
    num_output: 384
    pad: 1
    kernel_size: 3
    weight_filler {
      type: "gaussian"
      std: 0.01
    }
    bias_filler {
      type: "constant"
      value: 0.1
    }
  }
}
layer {
  name: "relu3"
  type: "ReLU"
  bottom: "L2"
  top: "L2"
}
layer {
  name: "L3"
  type: "Convolution"
  bottom: "L2"
  top: "L3"
  param {
    lr_mult: 1
    decay_mult: 1
  }
  param {
    lr_mult: 2
    decay_mult: 0
  }
  convolution_param {
    num_output: 384
    pad: 1
    kernel_size: 3
    group: 1
    weight_filler {
      type: "gaussian"
      std: 0.01
    }
    bias_filler {
      type: "constant"
      value: 0.1
    }
  }
}
layer {
  name: "relu4"
  type: "ReLU"
  bottom: "L3"
  top: "L3"
}
layer {
  name: "L4"
  type: "Convolution"
  bottom: "L3"
  top: "L4"
  param {
    lr_mult: 1
    decay_mult: 1
  }
  param {
    lr_mult: 2
    decay_mult: 0
  }
  convolution_param {
    num_output: 384
    pad: 1
    kernel_size: 3
    group: 1
    weight_filler {
      type: "gaussian"
      std: 0.01
    }
    bias_filler {
      type: "constant"
      value: 0.1
    }
  }
}
layer {
  name: "relu5"
  type: "ReLU"
  bottom: "L4"
  top: "L4"
}
layer {
  name: "pool5"
  type: "Pooling"
  bottom: "L4"
  top: "pool5"
  pooling_param {
    pool: MAX
    kernel_size: 3
    stride: 2
  }
}
layer {
  name: "L5"
  type: "Convolution"
  bottom: "pool5"
  top: "L5"
  param {
    lr_mult: 1
    decay_mult: 1
  }
  param {
    lr_mult: 2
    decay_mult: 0
  }
  convolution_param {
    num_output: 4096
    pad: 3
    kernel_size: 6
    weight_filler {
      type: "gaussian"
      std: 0.01
    }
    bias_filler {
      type: "constant"
      value: 1
    }
  }
}
layer {
  name: "relu6"
  type: "ReLU"
  bottom: "L5"
  top: "L5"
}
layer {
  name: "drop6"
  type: "Dropout"
  bottom: "L5"
  top: "L5"
  dropout_param {
    dropout_ratio: 0.5
  }
}
layer {
  name: "L6a"
  type: "Convolution"
  bottom: "L5"
  top: "L6a"
  param {
    lr_mult: 5
    decay_mult: 0.1
  }
  param {
    lr_mult: 2
    decay_mult: 0
  }
  convolution_param {
    num_output: 4096
    kernel_size: 1
    weight_filler {
      type: "gaussian"
      std: 0.01
    }
    bias_filler {
      type: "constant"
      value: 1
    }
  }
}
layer {
  name: "relu7a"
  type: "ReLU"
  bottom: "L6a"
  top: "L6a"
}
layer {
  name: "drop7a"
  type: "Dropout"
  bottom: "L6a"
  top: "L6a"
  dropout_param {
    dropout_ratio: 0.5
  }
}
layer {
  name: "L6b"
  type: "Convolution"
  bottom: "L5"
  top: "L6b"
  param {
    lr_mult: 5
    decay_mult: 0.1
  }
  param {
    lr_mult: 2
    decay_mult: 0
  }
  convolution_param {
    num_output: 4096
    kernel_size: 1
    weight_filler {
      type: "gaussian"
      std: 0.01
    }
    bias_filler {
      type: "constant"
      value: 1
    }
  }
}
layer {
  name: "relu7b"
  type: "ReLU"
  bottom: "L6b"
  top: "L6b"
}
layer {
  name: "drop7b"
  type: "Dropout"
  bottom: "L6b"
  top: "L6b"
  dropout_param {
    dropout_ratio: 0.5
  }
}
layer {
  name: "L6c"
  type: "Convolution"
  bottom: "L5"
  top: "L6c"
  param {
    lr_mult: 5
    decay_mult: 0.1
  }
  param {
    lr_mult: 2
    decay_mult: 0
  }
  convolution_param {
    num_output: 4096
    kernel_size: 1
    weight_filler {
      type: "gaussian"
      std: 0.01
    }
    bias_filler {
      type: "constant"
      value: 1
    }
  }
}
layer {
  name: "relu7c"
  type: "ReLU"
  bottom: "L6c"
  top: "L6c"
}
layer {
  name: "drop7c"
  type: "Dropout"
  bottom: "L6c"
  top: "L6c"
  dropout_param {
    dropout_ratio: 0.5
  }
}
layer {
  name: "bb-output"
  type: "Convolution"
  bottom: "L6a"
  top: "bb-output"
  param {
    lr_mult: 20
    decay_mult: 0.1
  }
  param {
    lr_mult: 20
    decay_mult: 0
  }
  convolution_param {
    num_output: 256
    kernel_size: 1
    weight_filler {
      type: "gaussian"
      std: 0.01
    }
    bias_filler {
      type: "constant"
      value: 0
    }
  }
}
layer {
  name: "pixel-conv"
  type: "Convolution"
  bottom: "L6b"
  top: "pixel-conv"
  param {
    lr_mult: 1
    decay_mult: 1
  }
  param {
    lr_mult: 2
    decay_mult: 0
  }
  convolution_param {
    num_output: 128
    kernel_size: 1
    weight_filler {
      type: "gaussian"
      std: 0.01
    }
    bias_filler {
      type: "constant"
      value: 0
    }
  }
}
layer {
  name: "type-conv"
  type: "Convolution"
  bottom: "L6c"
  top: "type-conv"
  param {
    lr_mult: 1
    decay_mult: 1
  }
  param {
    lr_mult: 2
    decay_mult: 0
  }
  convolution_param {
    num_output: 1024
    kernel_size: 1
    weight_filler {
      type: "gaussian"
      std: 0.01
    }
    bias_filler {
      type: "constant"
      value: 0
    }
  }
}
layer {
  name: "pixel-tile"
  type: "Tiling"
  bottom: "pixel-conv"
  top: "pixel-conv-tiled"
  tiling_param {
    tile_dim: 8
  }
}
layer {
  name: "bb-tile"
  type: "Tiling"
  bottom: "bb-output"
  top: "bb-output-tiled"
  tiling_param {
    tile_dim: 8
  }
}
layer {
  name: "type-tile"
  type: "Tiling"
  bottom: "type-conv"
  top: "type-conv-tiled"
  tiling_param {
    tile_dim: 4
  }
}
layer {
  name: "pixel-loss"
  type: "SoftmaxWithLoss"
  bottom: "pixel-conv-tiled"
  bottom: "pixel-label"
  top: "pixel-loss"
  loss_weight: 1
}
layer {
  name: "pixel-acc"
  type: "Accuracy"
  bottom: "pixel-conv-tiled"
  bottom: "pixel-label"
  top: "pixel-acc"
  include {
    phase: TEST
  }
}
layer {
  name: "type-loss"
  type: "SoftmaxWithLoss"
  bottom: "type-conv-tiled"
  bottom: "type"
  top: "type-loss"
  loss_weight: 1
}
layer {
  name: "type-acc"
  type: "Accuracy"
  bottom: "type-conv-tiled"
  bottom: "type"
  top: "type-acc"
  include {
    phase: TEST
  }
}
layer {
  name: "bb-prob-mask"
  type: "Eltwise"
  bottom: "bb-output-tiled"
  bottom: "pixel-block"
  top: "bb-masked-output"
  eltwise_param {
    operation: PROD
  }
}
layer {
  name: "bb-size-normalization"
  type: "Eltwise"
  bottom: "bb-masked-output"
  bottom: "size-block"
  top: "bb-masked-output-sn"
  eltwise_param {
    operation: PROD
  }
}
layer {
  name: "bb-num-pixel-normalization"
  type: "Eltwise"
  bottom: "bb-masked-output-sn"
  bottom: "norm-block"
  top: "bb-masked-output-sn-nn"
  eltwise_param {
    operation: PROD
  }
}
layer {
  name: "bb-loss"
  type: "L1Loss"
  bottom: "bb-masked-output-sn-nn"
  bottom: "bb-label-sn-nn"
  top: "bb-loss"
  loss_weight: 3
}
I1221 07:01:53.155917  2005 layer_factory.hpp:76] Creating layer data
I1221 07:01:53.156028  2005 net.cpp:110] Creating Layer data
I1221 07:01:53.156035  2005 net.cpp:432] data -> data
I1221 07:01:53.156044  2005 net.cpp:432] data -> label
I1221 07:01:53.156050  2005 net.cpp:432] data -> type
I1221 07:01:53.156056  2005 data_transformer.cpp:23] Loading mean file from: ./driving_mean_train.binaryproto
I1221 07:01:53.156996  2013 db_lmdb.cpp:22] Opened lmdb ./LMDB_test
I1221 07:01:53.164132  2005 drive_data_layer.cpp:49] output data size: 10,3,480,640
I1221 07:01:53.249308  2005 net.cpp:155] Setting up data
I1221 07:01:53.249341  2005 net.cpp:163] Top shape: 10 3 480 640 (9216000)
I1221 07:01:53.249351  2005 net.cpp:163] Top shape: 10 8 120 160 (1536000)
I1221 07:01:53.249356  2005 net.cpp:163] Top shape: 10 1 60 80 (48000)
I1221 07:01:53.249363  2005 layer_factory.hpp:76] Creating layer type_data_2_split
I1221 07:01:53.249374  2005 net.cpp:110] Creating Layer type_data_2_split
I1221 07:01:53.249379  2005 net.cpp:476] type_data_2_split <- type
I1221 07:01:53.249389  2005 net.cpp:432] type_data_2_split -> type_data_2_split_0
I1221 07:01:53.249397  2005 net.cpp:432] type_data_2_split -> type_data_2_split_1
I1221 07:01:53.249408  2005 net.cpp:155] Setting up type_data_2_split
I1221 07:01:53.249413  2005 net.cpp:163] Top shape: 10 1 60 80 (48000)
I1221 07:01:53.249418  2005 net.cpp:163] Top shape: 10 1 60 80 (48000)
I1221 07:01:53.249421  2005 layer_factory.hpp:76] Creating layer slice-label
I1221 07:01:53.249429  2005 net.cpp:110] Creating Layer slice-label
I1221 07:01:53.249434  2005 net.cpp:476] slice-label <- label
I1221 07:01:53.249439  2005 net.cpp:432] slice-label -> pixel-label
I1221 07:01:53.249446  2005 net.cpp:432] slice-label -> bb-label
I1221 07:01:53.249451  2005 net.cpp:432] slice-label -> size-label
I1221 07:01:53.249457  2005 net.cpp:432] slice-label -> norm-label
I1221 07:01:53.249465  2005 net.cpp:155] Setting up slice-label
I1221 07:01:53.249469  2005 net.cpp:163] Top shape: 10 1 120 160 (192000)
I1221 07:01:53.249475  2005 net.cpp:163] Top shape: 10 4 120 160 (768000)
I1221 07:01:53.249487  2005 net.cpp:163] Top shape: 10 2 120 160 (384000)
I1221 07:01:53.249505  2005 net.cpp:163] Top shape: 10 1 120 160 (192000)
I1221 07:01:53.249509  2005 layer_factory.hpp:76] Creating layer pixel-label_slice-label_0_split
I1221 07:01:53.249516  2005 net.cpp:110] Creating Layer pixel-label_slice-label_0_split
I1221 07:01:53.249521  2005 net.cpp:476] pixel-label_slice-label_0_split <- pixel-label
I1221 07:01:53.249526  2005 net.cpp:432] pixel-label_slice-label_0_split -> pixel-label_slice-label_0_split_0
I1221 07:01:53.249532  2005 net.cpp:432] pixel-label_slice-label_0_split -> pixel-label_slice-label_0_split_1
I1221 07:01:53.249538  2005 net.cpp:432] pixel-label_slice-label_0_split -> pixel-label_slice-label_0_split_2
I1221 07:01:53.249544  2005 net.cpp:432] pixel-label_slice-label_0_split -> pixel-label_slice-label_0_split_3
I1221 07:01:53.249550  2005 net.cpp:432] pixel-label_slice-label_0_split -> pixel-label_slice-label_0_split_4
I1221 07:01:53.249557  2005 net.cpp:432] pixel-label_slice-label_0_split -> pixel-label_slice-label_0_split_5
I1221 07:01:53.249562  2005 net.cpp:155] Setting up pixel-label_slice-label_0_split
I1221 07:01:53.249567  2005 net.cpp:163] Top shape: 10 1 120 160 (192000)
I1221 07:01:53.249572  2005 net.cpp:163] Top shape: 10 1 120 160 (192000)
I1221 07:01:53.249575  2005 net.cpp:163] Top shape: 10 1 120 160 (192000)
I1221 07:01:53.249579  2005 net.cpp:163] Top shape: 10 1 120 160 (192000)
I1221 07:01:53.249584  2005 net.cpp:163] Top shape: 10 1 120 160 (192000)
I1221 07:01:53.249588  2005 net.cpp:163] Top shape: 10 1 120 160 (192000)
I1221 07:01:53.249593  2005 layer_factory.hpp:76] Creating layer size-label_slice-label_2_split
I1221 07:01:53.249598  2005 net.cpp:110] Creating Layer size-label_slice-label_2_split
I1221 07:01:53.249603  2005 net.cpp:476] size-label_slice-label_2_split <- size-label
I1221 07:01:53.249608  2005 net.cpp:432] size-label_slice-label_2_split -> size-label_slice-label_2_split_0
I1221 07:01:53.249614  2005 net.cpp:432] size-label_slice-label_2_split -> size-label_slice-label_2_split_1
I1221 07:01:53.249619  2005 net.cpp:155] Setting up size-label_slice-label_2_split
I1221 07:01:53.249624  2005 net.cpp:163] Top shape: 10 2 120 160 (384000)
I1221 07:01:53.249629  2005 net.cpp:163] Top shape: 10 2 120 160 (384000)
I1221 07:01:53.249632  2005 layer_factory.hpp:76] Creating layer norm-label_slice-label_3_split
I1221 07:01:53.249644  2005 net.cpp:110] Creating Layer norm-label_slice-label_3_split
I1221 07:01:53.249647  2005 net.cpp:476] norm-label_slice-label_3_split <- norm-label
I1221 07:01:53.249652  2005 net.cpp:432] norm-label_slice-label_3_split -> norm-label_slice-label_3_split_0
I1221 07:01:53.249658  2005 net.cpp:432] norm-label_slice-label_3_split -> norm-label_slice-label_3_split_1
I1221 07:01:53.249665  2005 net.cpp:432] norm-label_slice-label_3_split -> norm-label_slice-label_3_split_2
I1221 07:01:53.249670  2005 net.cpp:432] norm-label_slice-label_3_split -> norm-label_slice-label_3_split_3
I1221 07:01:53.249675  2005 net.cpp:155] Setting up norm-label_slice-label_3_split
I1221 07:01:53.249678  2005 net.cpp:163] Top shape: 10 1 120 160 (192000)
I1221 07:01:53.249683  2005 net.cpp:163] Top shape: 10 1 120 160 (192000)
I1221 07:01:53.249687  2005 net.cpp:163] Top shape: 10 1 120 160 (192000)
I1221 07:01:53.249692  2005 net.cpp:163] Top shape: 10 1 120 160 (192000)
I1221 07:01:53.249696  2005 layer_factory.hpp:76] Creating layer pixel-block
I1221 07:01:53.249703  2005 net.cpp:110] Creating Layer pixel-block
I1221 07:01:53.249707  2005 net.cpp:476] pixel-block <- pixel-label_slice-label_0_split_0
I1221 07:01:53.249712  2005 net.cpp:476] pixel-block <- pixel-label_slice-label_0_split_1
I1221 07:01:53.249717  2005 net.cpp:476] pixel-block <- pixel-label_slice-label_0_split_2
I1221 07:01:53.249722  2005 net.cpp:476] pixel-block <- pixel-label_slice-label_0_split_3
I1221 07:01:53.249727  2005 net.cpp:432] pixel-block -> pixel-block
I1221 07:01:53.249733  2005 net.cpp:155] Setting up pixel-block
I1221 07:01:53.249737  2005 net.cpp:163] Top shape: 10 4 120 160 (768000)
I1221 07:01:53.249750  2005 layer_factory.hpp:76] Creating layer size-block
I1221 07:01:53.249755  2005 net.cpp:110] Creating Layer size-block
I1221 07:01:53.249759  2005 net.cpp:476] size-block <- size-label_slice-label_2_split_0
I1221 07:01:53.249763  2005 net.cpp:476] size-block <- size-label_slice-label_2_split_1
I1221 07:01:53.249768  2005 net.cpp:432] size-block -> size-block
I1221 07:01:53.249774  2005 net.cpp:155] Setting up size-block
I1221 07:01:53.249778  2005 net.cpp:163] Top shape: 10 4 120 160 (768000)
I1221 07:01:53.249783  2005 layer_factory.hpp:76] Creating layer size-block_size-block_0_split
I1221 07:01:53.249788  2005 net.cpp:110] Creating Layer size-block_size-block_0_split
I1221 07:01:53.249791  2005 net.cpp:476] size-block_size-block_0_split <- size-block
I1221 07:01:53.249797  2005 net.cpp:432] size-block_size-block_0_split -> size-block_size-block_0_split_0
I1221 07:01:53.249804  2005 net.cpp:432] size-block_size-block_0_split -> size-block_size-block_0_split_1
I1221 07:01:53.249809  2005 net.cpp:155] Setting up size-block_size-block_0_split
I1221 07:01:53.249812  2005 net.cpp:163] Top shape: 10 4 120 160 (768000)
I1221 07:01:53.249817  2005 net.cpp:163] Top shape: 10 4 120 160 (768000)
I1221 07:01:53.249821  2005 layer_factory.hpp:76] Creating layer norm-block
I1221 07:01:53.249826  2005 net.cpp:110] Creating Layer norm-block
I1221 07:01:53.249830  2005 net.cpp:476] norm-block <- norm-label_slice-label_3_split_0
I1221 07:01:53.249835  2005 net.cpp:476] norm-block <- norm-label_slice-label_3_split_1
I1221 07:01:53.249840  2005 net.cpp:476] norm-block <- norm-label_slice-label_3_split_2
I1221 07:01:53.249843  2005 net.cpp:476] norm-block <- norm-label_slice-label_3_split_3
I1221 07:01:53.249848  2005 net.cpp:432] norm-block -> norm-block
I1221 07:01:53.249855  2005 net.cpp:155] Setting up norm-block
I1221 07:01:53.249858  2005 net.cpp:163] Top shape: 10 4 120 160 (768000)
I1221 07:01:53.249863  2005 layer_factory.hpp:76] Creating layer norm-block_norm-block_0_split
I1221 07:01:53.249868  2005 net.cpp:110] Creating Layer norm-block_norm-block_0_split
I1221 07:01:53.249872  2005 net.cpp:476] norm-block_norm-block_0_split <- norm-block
I1221 07:01:53.249877  2005 net.cpp:432] norm-block_norm-block_0_split -> norm-block_norm-block_0_split_0
I1221 07:01:53.249883  2005 net.cpp:432] norm-block_norm-block_0_split -> norm-block_norm-block_0_split_1
I1221 07:01:53.249888  2005 net.cpp:155] Setting up norm-block_norm-block_0_split
I1221 07:01:53.249892  2005 net.cpp:163] Top shape: 10 4 120 160 (768000)
I1221 07:01:53.249897  2005 net.cpp:163] Top shape: 10 4 120 160 (768000)
I1221 07:01:53.249902  2005 layer_factory.hpp:76] Creating layer bb-label-size-normalization
I1221 07:01:53.249907  2005 net.cpp:110] Creating Layer bb-label-size-normalization
I1221 07:01:53.249912  2005 net.cpp:476] bb-label-size-normalization <- bb-label
I1221 07:01:53.249917  2005 net.cpp:476] bb-label-size-normalization <- size-block_size-block_0_split_0
I1221 07:01:53.249922  2005 net.cpp:432] bb-label-size-normalization -> bb-label-sn
I1221 07:01:53.249928  2005 net.cpp:155] Setting up bb-label-size-normalization
I1221 07:01:53.249933  2005 net.cpp:163] Top shape: 10 4 120 160 (768000)
I1221 07:01:53.249938  2005 layer_factory.hpp:76] Creating layer bb-label-num-pixel-normalization
I1221 07:01:53.249943  2005 net.cpp:110] Creating Layer bb-label-num-pixel-normalization
I1221 07:01:53.249946  2005 net.cpp:476] bb-label-num-pixel-normalization <- bb-label-sn
I1221 07:01:53.249950  2005 net.cpp:476] bb-label-num-pixel-normalization <- norm-block_norm-block_0_split_0
I1221 07:01:53.249955  2005 net.cpp:432] bb-label-num-pixel-normalization -> bb-label-sn-nn
I1221 07:01:53.249960  2005 net.cpp:155] Setting up bb-label-num-pixel-normalization
I1221 07:01:53.249964  2005 net.cpp:163] Top shape: 10 4 120 160 (768000)
I1221 07:01:53.249969  2005 layer_factory.hpp:76] Creating layer L0
I1221 07:01:53.249976  2005 net.cpp:110] Creating Layer L0
I1221 07:01:53.249980  2005 net.cpp:476] L0 <- data
I1221 07:01:53.249989  2005 net.cpp:432] L0 -> L0
I1221 07:01:53.250418  2005 net.cpp:155] Setting up L0
I1221 07:01:53.250424  2005 net.cpp:163] Top shape: 10 96 118 158 (17898240)
I1221 07:01:53.250449  2005 layer_factory.hpp:76] Creating layer relu1
I1221 07:01:53.250460  2005 net.cpp:110] Creating Layer relu1
I1221 07:01:53.250466  2005 net.cpp:476] relu1 <- L0
I1221 07:01:53.250474  2005 net.cpp:419] relu1 -> L0 (in-place)
I1221 07:01:53.250483  2005 net.cpp:155] Setting up relu1
I1221 07:01:53.250489  2005 net.cpp:163] Top shape: 10 96 118 158 (17898240)
I1221 07:01:53.250496  2005 layer_factory.hpp:76] Creating layer norm1
I1221 07:01:53.250504  2005 net.cpp:110] Creating Layer norm1
I1221 07:01:53.250520  2005 net.cpp:476] norm1 <- L0
I1221 07:01:53.250525  2005 net.cpp:432] norm1 -> norm1
I1221 07:01:53.250532  2005 net.cpp:155] Setting up norm1
I1221 07:01:53.250536  2005 net.cpp:163] Top shape: 10 96 118 158 (17898240)
I1221 07:01:53.250541  2005 layer_factory.hpp:76] Creating layer pool1
I1221 07:01:53.250547  2005 net.cpp:110] Creating Layer pool1
I1221 07:01:53.250551  2005 net.cpp:476] pool1 <- norm1
I1221 07:01:53.250556  2005 net.cpp:432] pool1 -> pool1
I1221 07:01:53.250564  2005 net.cpp:155] Setting up pool1
I1221 07:01:53.250568  2005 net.cpp:163] Top shape: 10 96 59 79 (4474560)
I1221 07:01:53.250573  2005 layer_factory.hpp:76] Creating layer L1
I1221 07:01:53.250579  2005 net.cpp:110] Creating Layer L1
I1221 07:01:53.250583  2005 net.cpp:476] L1 <- pool1
I1221 07:01:53.250588  2005 net.cpp:432] L1 -> L1
I1221 07:01:53.259965  2005 net.cpp:155] Setting up L1
I1221 07:01:53.259994  2005 net.cpp:163] Top shape: 10 256 59 79 (11932160)
I1221 07:01:53.260010  2005 layer_factory.hpp:76] Creating layer relu2
I1221 07:01:53.260020  2005 net.cpp:110] Creating Layer relu2
I1221 07:01:53.260025  2005 net.cpp:476] relu2 <- L1
I1221 07:01:53.260033  2005 net.cpp:419] relu2 -> L1 (in-place)
I1221 07:01:53.260041  2005 net.cpp:155] Setting up relu2
I1221 07:01:53.260046  2005 net.cpp:163] Top shape: 10 256 59 79 (11932160)
I1221 07:01:53.260051  2005 layer_factory.hpp:76] Creating layer norm2
I1221 07:01:53.260058  2005 net.cpp:110] Creating Layer norm2
I1221 07:01:53.260062  2005 net.cpp:476] norm2 <- L1
I1221 07:01:53.260068  2005 net.cpp:432] norm2 -> norm2
I1221 07:01:53.260076  2005 net.cpp:155] Setting up norm2
I1221 07:01:53.260080  2005 net.cpp:163] Top shape: 10 256 59 79 (11932160)
I1221 07:01:53.260087  2005 layer_factory.hpp:76] Creating layer pool2
I1221 07:01:53.260092  2005 net.cpp:110] Creating Layer pool2
I1221 07:01:53.260097  2005 net.cpp:476] pool2 <- norm2
I1221 07:01:53.260102  2005 net.cpp:432] pool2 -> pool2
I1221 07:01:53.260109  2005 net.cpp:155] Setting up pool2
I1221 07:01:53.260114  2005 net.cpp:163] Top shape: 10 256 29 39 (2895360)
I1221 07:01:53.260119  2005 layer_factory.hpp:76] Creating layer L2
I1221 07:01:53.260126  2005 net.cpp:110] Creating Layer L2
I1221 07:01:53.260131  2005 net.cpp:476] L2 <- pool2
I1221 07:01:53.260138  2005 net.cpp:432] L2 -> L2
I1221 07:01:53.273546  2005 net.cpp:155] Setting up L2
I1221 07:01:53.273574  2005 net.cpp:163] Top shape: 10 384 29 39 (4343040)
I1221 07:01:53.273593  2005 layer_factory.hpp:76] Creating layer relu3
I1221 07:01:53.273605  2005 net.cpp:110] Creating Layer relu3
I1221 07:01:53.273612  2005 net.cpp:476] relu3 <- L2
I1221 07:01:53.273622  2005 net.cpp:419] relu3 -> L2 (in-place)
I1221 07:01:53.273633  2005 net.cpp:155] Setting up relu3
I1221 07:01:53.273639  2005 net.cpp:163] Top shape: 10 384 29 39 (4343040)
I1221 07:01:53.273654  2005 layer_factory.hpp:76] Creating layer L3
I1221 07:01:53.273665  2005 net.cpp:110] Creating Layer L3
I1221 07:01:53.273672  2005 net.cpp:476] L3 <- L2
I1221 07:01:53.273681  2005 net.cpp:432] L3 -> L3
I1221 07:01:53.294145  2005 net.cpp:155] Setting up L3
I1221 07:01:53.294173  2005 net.cpp:163] Top shape: 10 384 29 39 (4343040)
I1221 07:01:53.294188  2005 layer_factory.hpp:76] Creating layer relu4
I1221 07:01:53.294198  2005 net.cpp:110] Creating Layer relu4
I1221 07:01:53.294206  2005 net.cpp:476] relu4 <- L3
I1221 07:01:53.294229  2005 net.cpp:419] relu4 -> L3 (in-place)
I1221 07:01:53.294253  2005 net.cpp:155] Setting up relu4
I1221 07:01:53.294260  2005 net.cpp:163] Top shape: 10 384 29 39 (4343040)
I1221 07:01:53.294268  2005 layer_factory.hpp:76] Creating layer L4
I1221 07:01:53.294278  2005 net.cpp:110] Creating Layer L4
I1221 07:01:53.294284  2005 net.cpp:476] L4 <- L3
I1221 07:01:53.294293  2005 net.cpp:432] L4 -> L4
I1221 07:01:53.314069  2005 net.cpp:155] Setting up L4
I1221 07:01:53.314098  2005 net.cpp:163] Top shape: 10 384 29 39 (4343040)
I1221 07:01:53.314116  2005 layer_factory.hpp:76] Creating layer relu5
I1221 07:01:53.314126  2005 net.cpp:110] Creating Layer relu5
I1221 07:01:53.314134  2005 net.cpp:476] relu5 <- L4
I1221 07:01:53.314143  2005 net.cpp:419] relu5 -> L4 (in-place)
I1221 07:01:53.314154  2005 net.cpp:155] Setting up relu5
I1221 07:01:53.314160  2005 net.cpp:163] Top shape: 10 384 29 39 (4343040)
I1221 07:01:53.314168  2005 layer_factory.hpp:76] Creating layer pool5
I1221 07:01:53.314177  2005 net.cpp:110] Creating Layer pool5
I1221 07:01:53.314183  2005 net.cpp:476] pool5 <- L4
I1221 07:01:53.314190  2005 net.cpp:432] pool5 -> pool5
I1221 07:01:53.314203  2005 net.cpp:155] Setting up pool5
I1221 07:01:53.314208  2005 net.cpp:163] Top shape: 10 384 14 19 (1021440)
I1221 07:01:53.314216  2005 layer_factory.hpp:76] Creating layer L5
I1221 07:01:53.314225  2005 net.cpp:110] Creating Layer L5
I1221 07:01:53.314231  2005 net.cpp:476] L5 <- pool5
I1221 07:01:53.314239  2005 net.cpp:432] L5 -> L5
I1221 07:01:54.031280  2005 net.cpp:155] Setting up L5
I1221 07:01:54.031332  2005 net.cpp:163] Top shape: 10 4096 15 20 (12288000)
I1221 07:01:54.031347  2005 layer_factory.hpp:76] Creating layer relu6
I1221 07:01:54.031356  2005 net.cpp:110] Creating Layer relu6
I1221 07:01:54.031363  2005 net.cpp:476] relu6 <- L5
I1221 07:01:54.031371  2005 net.cpp:419] relu6 -> L5 (in-place)
I1221 07:01:54.031381  2005 net.cpp:155] Setting up relu6
I1221 07:01:54.031385  2005 net.cpp:163] Top shape: 10 4096 15 20 (12288000)
I1221 07:01:54.031391  2005 layer_factory.hpp:76] Creating layer drop6
I1221 07:01:54.031399  2005 net.cpp:110] Creating Layer drop6
I1221 07:01:54.031402  2005 net.cpp:476] drop6 <- L5
I1221 07:01:54.031407  2005 net.cpp:419] drop6 -> L5 (in-place)
I1221 07:01:54.031415  2005 net.cpp:155] Setting up drop6
I1221 07:01:54.031419  2005 net.cpp:163] Top shape: 10 4096 15 20 (12288000)
I1221 07:01:54.031424  2005 layer_factory.hpp:76] Creating layer L5_drop6_0_split
I1221 07:01:54.031430  2005 net.cpp:110] Creating Layer L5_drop6_0_split
I1221 07:01:54.031435  2005 net.cpp:476] L5_drop6_0_split <- L5
I1221 07:01:54.031441  2005 net.cpp:432] L5_drop6_0_split -> L5_drop6_0_split_0
I1221 07:01:54.031450  2005 net.cpp:432] L5_drop6_0_split -> L5_drop6_0_split_1
I1221 07:01:54.031455  2005 net.cpp:432] L5_drop6_0_split -> L5_drop6_0_split_2
I1221 07:01:54.031462  2005 net.cpp:155] Setting up L5_drop6_0_split
I1221 07:01:54.031467  2005 net.cpp:163] Top shape: 10 4096 15 20 (12288000)
I1221 07:01:54.031472  2005 net.cpp:163] Top shape: 10 4096 15 20 (12288000)
I1221 07:01:54.031476  2005 net.cpp:163] Top shape: 10 4096 15 20 (12288000)
I1221 07:01:54.031481  2005 layer_factory.hpp:76] Creating layer L6a
I1221 07:01:54.031491  2005 net.cpp:110] Creating Layer L6a
I1221 07:01:54.031494  2005 net.cpp:476] L6a <- L5_drop6_0_split_0
I1221 07:01:54.031500  2005 net.cpp:432] L6a -> L6a
I1221 07:01:54.198993  2005 net.cpp:155] Setting up L6a
I1221 07:01:54.199026  2005 net.cpp:163] Top shape: 10 4096 15 20 (12288000)
I1221 07:01:54.199040  2005 layer_factory.hpp:76] Creating layer relu7a
I1221 07:01:54.199050  2005 net.cpp:110] Creating Layer relu7a
I1221 07:01:54.199056  2005 net.cpp:476] relu7a <- L6a
I1221 07:01:54.199064  2005 net.cpp:419] relu7a -> L6a (in-place)
I1221 07:01:54.199072  2005 net.cpp:155] Setting up relu7a
I1221 07:01:54.199076  2005 net.cpp:163] Top shape: 10 4096 15 20 (12288000)
I1221 07:01:54.199081  2005 layer_factory.hpp:76] Creating layer drop7a
I1221 07:01:54.199088  2005 net.cpp:110] Creating Layer drop7a
I1221 07:01:54.199103  2005 net.cpp:476] drop7a <- L6a
I1221 07:01:54.199118  2005 net.cpp:419] drop7a -> L6a (in-place)
I1221 07:01:54.199126  2005 net.cpp:155] Setting up drop7a
I1221 07:01:54.199129  2005 net.cpp:163] Top shape: 10 4096 15 20 (12288000)
I1221 07:01:54.199133  2005 layer_factory.hpp:76] Creating layer L6b
I1221 07:01:54.199141  2005 net.cpp:110] Creating Layer L6b
I1221 07:01:54.199146  2005 net.cpp:476] L6b <- L5_drop6_0_split_1
I1221 07:01:54.199151  2005 net.cpp:432] L6b -> L6b
I1221 07:01:54.370462  2005 net.cpp:155] Setting up L6b
I1221 07:01:54.370496  2005 net.cpp:163] Top shape: 10 4096 15 20 (12288000)
I1221 07:01:54.370522  2005 layer_factory.hpp:76] Creating layer relu7b
I1221 07:01:54.370530  2005 net.cpp:110] Creating Layer relu7b
I1221 07:01:54.370535  2005 net.cpp:476] relu7b <- L6b
I1221 07:01:54.370543  2005 net.cpp:419] relu7b -> L6b (in-place)
I1221 07:01:54.370553  2005 net.cpp:155] Setting up relu7b
I1221 07:01:54.370558  2005 net.cpp:163] Top shape: 10 4096 15 20 (12288000)
I1221 07:01:54.370563  2005 layer_factory.hpp:76] Creating layer drop7b
I1221 07:01:54.370569  2005 net.cpp:110] Creating Layer drop7b
I1221 07:01:54.370573  2005 net.cpp:476] drop7b <- L6b
I1221 07:01:54.370579  2005 net.cpp:419] drop7b -> L6b (in-place)
I1221 07:01:54.370601  2005 net.cpp:155] Setting up drop7b
I1221 07:01:54.370605  2005 net.cpp:163] Top shape: 10 4096 15 20 (12288000)
I1221 07:01:54.370610  2005 layer_factory.hpp:76] Creating layer L6c
I1221 07:01:54.370617  2005 net.cpp:110] Creating Layer L6c
I1221 07:01:54.370622  2005 net.cpp:476] L6c <- L5_drop6_0_split_2
I1221 07:01:54.370628  2005 net.cpp:432] L6c -> L6c
I1221 07:01:54.539683  2005 net.cpp:155] Setting up L6c
I1221 07:01:54.539721  2005 net.cpp:163] Top shape: 10 4096 15 20 (12288000)
I1221 07:01:54.539741  2005 layer_factory.hpp:76] Creating layer relu7c
I1221 07:01:54.539750  2005 net.cpp:110] Creating Layer relu7c
I1221 07:01:54.539758  2005 net.cpp:476] relu7c <- L6c
I1221 07:01:54.539767  2005 net.cpp:419] relu7c -> L6c (in-place)
I1221 07:01:54.539777  2005 net.cpp:155] Setting up relu7c
I1221 07:01:54.539780  2005 net.cpp:163] Top shape: 10 4096 15 20 (12288000)
I1221 07:01:54.539786  2005 layer_factory.hpp:76] Creating layer drop7c
I1221 07:01:54.539793  2005 net.cpp:110] Creating Layer drop7c
I1221 07:01:54.539798  2005 net.cpp:476] drop7c <- L6c
I1221 07:01:54.539803  2005 net.cpp:419] drop7c -> L6c (in-place)
I1221 07:01:54.539811  2005 net.cpp:155] Setting up drop7c
I1221 07:01:54.539815  2005 net.cpp:163] Top shape: 10 4096 15 20 (12288000)
I1221 07:01:54.539821  2005 layer_factory.hpp:76] Creating layer bb-output
I1221 07:01:54.539829  2005 net.cpp:110] Creating Layer bb-output
I1221 07:01:54.539834  2005 net.cpp:476] bb-output <- L6a
I1221 07:01:54.539840  2005 net.cpp:432] bb-output -> bb-output
I1221 07:01:54.551026  2005 net.cpp:155] Setting up bb-output
I1221 07:01:54.551049  2005 net.cpp:163] Top shape: 10 256 15 20 (768000)
I1221 07:01:54.551060  2005 layer_factory.hpp:76] Creating layer pixel-conv
I1221 07:01:54.551082  2005 net.cpp:110] Creating Layer pixel-conv
I1221 07:01:54.551088  2005 net.cpp:476] pixel-conv <- L6b
I1221 07:01:54.551096  2005 net.cpp:432] pixel-conv -> pixel-conv
I1221 07:01:54.556440  2005 net.cpp:155] Setting up pixel-conv
I1221 07:01:54.556459  2005 net.cpp:163] Top shape: 10 128 15 20 (384000)
I1221 07:01:54.556469  2005 layer_factory.hpp:76] Creating layer type-conv
I1221 07:01:54.556478  2005 net.cpp:110] Creating Layer type-conv
I1221 07:01:54.556483  2005 net.cpp:476] type-conv <- L6c
I1221 07:01:54.556491  2005 net.cpp:432] type-conv -> type-conv
I1221 07:01:54.596537  2005 net.cpp:155] Setting up type-conv
I1221 07:01:54.596557  2005 net.cpp:163] Top shape: 10 1024 15 20 (3072000)
I1221 07:01:54.596568  2005 layer_factory.hpp:76] Creating layer pixel-tile
I1221 07:01:54.596576  2005 net.cpp:110] Creating Layer pixel-tile
I1221 07:01:54.596582  2005 net.cpp:476] pixel-tile <- pixel-conv
I1221 07:01:54.596588  2005 net.cpp:432] pixel-tile -> pixel-conv-tiled
I1221 07:01:54.596606  2005 net.cpp:155] Setting up pixel-tile
I1221 07:01:54.596621  2005 net.cpp:163] Top shape: 10 2 120 160 (384000)
I1221 07:01:54.596626  2005 layer_factory.hpp:76] Creating layer pixel-conv-tiled_pixel-tile_0_split
I1221 07:01:54.596632  2005 net.cpp:110] Creating Layer pixel-conv-tiled_pixel-tile_0_split
I1221 07:01:54.596635  2005 net.cpp:476] pixel-conv-tiled_pixel-tile_0_split <- pixel-conv-tiled
I1221 07:01:54.596642  2005 net.cpp:432] pixel-conv-tiled_pixel-tile_0_split -> pixel-conv-tiled_pixel-tile_0_split_0
I1221 07:01:54.596647  2005 net.cpp:432] pixel-conv-tiled_pixel-tile_0_split -> pixel-conv-tiled_pixel-tile_0_split_1
I1221 07:01:54.596653  2005 net.cpp:155] Setting up pixel-conv-tiled_pixel-tile_0_split
I1221 07:01:54.596657  2005 net.cpp:163] Top shape: 10 2 120 160 (384000)
I1221 07:01:54.596662  2005 net.cpp:163] Top shape: 10 2 120 160 (384000)
I1221 07:01:54.596666  2005 layer_factory.hpp:76] Creating layer bb-tile
I1221 07:01:54.596670  2005 net.cpp:110] Creating Layer bb-tile
I1221 07:01:54.596675  2005 net.cpp:476] bb-tile <- bb-output
I1221 07:01:54.596680  2005 net.cpp:432] bb-tile -> bb-output-tiled
I1221 07:01:54.596685  2005 net.cpp:155] Setting up bb-tile
I1221 07:01:54.596689  2005 net.cpp:163] Top shape: 10 4 120 160 (768000)
I1221 07:01:54.596693  2005 layer_factory.hpp:76] Creating layer type-tile
I1221 07:01:54.596698  2005 net.cpp:110] Creating Layer type-tile
I1221 07:01:54.596701  2005 net.cpp:476] type-tile <- type-conv
I1221 07:01:54.596706  2005 net.cpp:432] type-tile -> type-conv-tiled
I1221 07:01:54.596711  2005 net.cpp:155] Setting up type-tile
I1221 07:01:54.596714  2005 net.cpp:163] Top shape: 10 64 60 80 (3072000)
I1221 07:01:54.596719  2005 layer_factory.hpp:76] Creating layer type-conv-tiled_type-tile_0_split
I1221 07:01:54.596724  2005 net.cpp:110] Creating Layer type-conv-tiled_type-tile_0_split
I1221 07:01:54.596727  2005 net.cpp:476] type-conv-tiled_type-tile_0_split <- type-conv-tiled
I1221 07:01:54.596731  2005 net.cpp:432] type-conv-tiled_type-tile_0_split -> type-conv-tiled_type-tile_0_split_0
I1221 07:01:54.596737  2005 net.cpp:432] type-conv-tiled_type-tile_0_split -> type-conv-tiled_type-tile_0_split_1
I1221 07:01:54.596742  2005 net.cpp:155] Setting up type-conv-tiled_type-tile_0_split
I1221 07:01:54.596746  2005 net.cpp:163] Top shape: 10 64 60 80 (3072000)
I1221 07:01:54.596750  2005 net.cpp:163] Top shape: 10 64 60 80 (3072000)
I1221 07:01:54.596755  2005 layer_factory.hpp:76] Creating layer pixel-loss
I1221 07:01:54.596760  2005 net.cpp:110] Creating Layer pixel-loss
I1221 07:01:54.596765  2005 net.cpp:476] pixel-loss <- pixel-conv-tiled_pixel-tile_0_split_0
I1221 07:01:54.596768  2005 net.cpp:476] pixel-loss <- pixel-label_slice-label_0_split_4
I1221 07:01:54.596774  2005 net.cpp:432] pixel-loss -> pixel-loss
…
